models/mnist/cnn/model.pt (torch, 142423 bytes, 6 tensors)

weight f4 [32, 1, 3, 3]
000000 da 17 ba 3d cb 57 9a be 6c c4 17 bd a4 3f 80 be
       0.090865806 -0.30145106 -0.037052557 -0.25048554
000010 ae 81 d7 be 62 49 6d 3e 27 a2 ec bd 40 b1 ba bc
       -0.42091125 0.23172525 -0.115543656 -0.022789598
000020 bd 19 29 be e8 03 4b 3e 30 87 37 3d 94 3b 64 be
       -0.16513725 0.19825709 0.04480666 -0.22288352
000030 38 b3 a1 bd cb c8 6b be 2c 3c 80 3e d1 83 a0 3d
       -0.078955114 -0.23025815 0.25045907 0.07837642
000040 da 56 68 b9 a2 5b 45 bc ca 8c 4f be d0 4a a2 be
       -0.00022157599 -0.012045773 -0.2026855 -0.31697702
000050 b1 a4 ce be e7 04 6c be 53 c7 94 3d c9 6e 51 bd
       -0.40360025 -0.23048745 0.072645806 -0.051131044
000060 b1 f6 6d be 19 81 78 be 18 1e bf be e2 52 bc 3e
       -0.23238637 -0.24267997 -0.37327647 0.36781985
000070 d6 e7 ed 3d a9 13 69 3d 9f 8e af 3e 12 ed 52 be
       0.11616485 0.056903515 0.342885 -0.20598248
000080 8b 06 8e 3e f3 d9 d3 be 55 31 df bb 5c ff 73 3e
       0.27739367 -0.4137722 -0.0068113008 0.2382788
000090 c5 ef 87 3e 17 24 f6 bd 3e 1e e3 be d2 9a 93 3e
       0.26550117 -0.12018602 -0.4435901 0.28829056
0000a0 cd 88 88 3e cc 40 78 3d c0 81 99 3d bf ef 25 3e
       0.2666687 0.06060867 0.07495451 0.16204737
0000b0 9f a8 b6 3e 78 75 11 3f c7 b0 26 3e ae 0f ee be
       0.35675523 0.5681987 0.16278373 -0.46496338
0000c0 18 fd b4 3c 64 c1 a5 be 8d a9 de be 7e 17 eb be
       0.02209334 -0.32374108 -0.43488732 -0.4591636
0000d0 4f 33 b4 be 13 0f 67 bd e7 67 0f 3d bf 56 3d 3e
       -0.35195395 -0.05641086 0.0350112 0.18490122
0000e0 22 8f 9b 3d 66 40 2d 3e 34 c4 64 3e 4e 1b 49 3e
       0.0759566 0.16919097 0.2234047 0.19639322
0000f0 e4 4a 94 be f1 8e bf be 55 72 ae bd 34 04 51 bd
       -0.28963387 -0.37413743 -0.08517901 -0.0510294
000100 f2 38 e8 be d1 e3 58 bc 38 fd f7 be 88 b3 64 3e
       -0.45355946 -0.013237909 -0.48435378 0.2233411
000110 d1 25 8b 3e 97 98 0f 3e 65 24 ee 3e 9c df 06 be
       0.2717729 0.14023052 0.46512142 -0.13171238
000120 36 26 a2 3e f2 8d 9e 3d 04 82 f2 3e d1 f7 9f be
       0.31669778 0.07741918 0.4736482 -0.31243756
000130 89 23 92 3e 98 c6 3a be cb 0b a5 3c e5 35 eb be
       0.28542736 -0.1823982 0.020147225 -0.45939556
000140 52 f1 6b be 4f 61 dc 3e 5f e4 a2 3e 1a f3 c7 be
       -0.23041275 0.4304299 0.31814858 -0.3905266
000150 37 89 40 3e 6b 5a 97 be 7b 08 ad bd d5 c7 4b 3d
       0.18802343 -0.2956117 -0.08448883 0.04975112
000160 f3 91 a6 be 05 4d 7e be fb 87 1d bf 20 ec 97 bd
       -0.32533225 -0.24834068 -0.61535615 -0.07418084
000170 9e 6b 41 bd b7 70 09 bf f8 e1 aa 3e f5 8d 3a 3e
       -0.047221772 -0.53687614 0.33375525 0.18218215
000180 e2 2c 90 be bc 4d d3 3e fc 5b 97 3e 4d f0 51 3e
       -0.28159243 0.41270244 0.29562366 0.20501824
000190 05 12 7f be 7c a9 12 3e a2 29 24 3b a1 5d a2 3d
       -0.24909218 0.14322466 0.002504923 0.079280145
0001a0 cf 98 9a 3e e9 c3 dc 3d f9 dd f3 bd 3a 1f ac be
       0.3019471 0.107795544 -0.11907572 -0.33617574
0001b0 c4 5d cc 3e ba 95 6d be 57 90 e5 bd df bc 29 3e
       0.39915287 -0.23201647 -0.11209171 0.16575955
0001c0 be b9 f5 be 29 b8 83 3e be 7d 84 3e b1 77 c4 be
       -0.47993273 0.2572644 0.25877184 -0.38372567
0001d0 af d2 01 3e e8 3c a1 3e a0 ae 9a 3e c4 4e 66 3e
       0.12678026 0.3149178 0.30211353 0.22490984
0001e0 ef b5 8a 3e 02 90 67 3d cf 05 6a bd 6d 4f 2d 3e
       0.2709193 0.05653382 -0.057134446 0.1692483
0001f0 89 47 eb 3d eb 60 0e be cd cd b3 3e ac 35 6b 3e
       0.114882536 -0.13904159 0.3511795 0.22969693
000200 d4 a7 b1 3b d4 c7 7d 3e 8f 5a 61 be 6b d1 ac be
       0.005421618 0.2478326 -0.22007202 -0.33753523
000210 b2 73 04 bf 4f c8 68 be 62 b5 f9 bd 61 01 7f be
       -0.5173904 -0.22732662 -0.12192799 -0.2490287
000220 72 af 96 be c6 6c ad be 27 a5 b4 be 8d 0a 11 3c
       -0.2943073 -0.3387205 -0.3528225 0.008852613
000230 08 b3 b4 be 93 04 b4 3d 66 7a f4 3c ab d0 c5 be
       -0.3529284 0.08789935 0.02984352 -0.38635764
000240 de c1 b1 3e b4 0a 88 bc 6e c9 5e 3e 52 98 23 3e
       0.3471822 -0.016606666 0.21756527 0.15976074
000250 d9 29 b3 3d d1 fd 63 be e5 d0 6e 3e 95 f6 a3 3e
       0.08748216 -0.22264792 0.23321874 0.32024065
000260 d7 86 f1 bd 42 f3 e2 3d d1 49 55 3d 85 41 31 bc
       -0.11793297 0.11081554 0.05207235 -0.010818844
000270 07 a3 af 3e eb cd 0d be b5 3c 9f be f7 3f b4 3e
       0.34304067 -0.13848083 -0.31101003 0.3520505
000280 06 3f cf bc c6 1b 99 be 5c 73 02 bd 9c e8 a6 be
       -0.025298607 -0.29904002 -0.031848297 -0.32599342
000290 fc e0 b2 be ff 2e 4c 3e 67 09 ba 3e de b0 10 3e
       -0.34937274 0.19939803 0.36335298 0.1412997
0002a0 03 d0 12 be 41 9a 74 3e 96 8d 71 3e 02 be 07 bf
       -0.14337163 0.23886968 0.23589167 -0.53024304
0002b0 ad 0e af be 8d bd 95 3d fc 2f c4 3e c2 6f 26 3d
       -0.34190884 0.073115446 0.3831786 0.040633924
0002c0 c7 55 b3 3d 3b 02 4d 3e e1 bc 76 3e 15 a7 60 bd
       0.08756595 0.20020382 0.24095489 -0.05484684
0002d0 b3 17 8e 3e 65 ba 67 bc 77 80 a9 3e 5c 91 f0 3c
       0.27752456 -0.014143561 0.33105823 0.029366188
0002e0 d2 7e 9c be 2e a8 ae 3e d8 ad 85 3e d5 c5 48 3e
       -0.30565506 0.34112686 0.26109195 0.19606717
0002f0 f5 e0 85 bd 79 43 63 be 13 23 e0 be fe 5e c9 be
       -0.06537048 -0.22193708 -0.4377676 -0.39330286
000300 0d 35 ad be e1 1c d7 3d c5 22 82 3e 1e a7 e8 be
       -0.33829537 0.10503555 0.25417152 -0.4544
000310 a1 6b 9a 3e 2c e9 2d bd 67 a4 7c 3e 85 57 a5 3e
       0.3016024 -0.0424587 0.2467209 0.32293335
000320 3a a5 d8 3d 51 52 9a 3e 37 a6 85 3d 05 fc a1 3e
       0.105783895 0.30140927 0.065258436 0.31637588
000330 6b 48 8e 3e 1a 2d a8 bc af 52 6b be f1 8a 6b 3e
       0.27789626 -0.020529319 -0.2298076 0.2300222
000340 d3 f9 09 3c fe fa 89 be d0 69 ae 3e 58 f4 80 3e
       0.008421379 -0.26949304 0.34065104 0.2518642
000350 be 94 e9 be 25 e2 7d 3e df d8 6c be 8f 25 24 bc
       -0.45621294 0.24793299 -0.23129605 -0.01001872
000360 8a 95 d4 bc 80 d3 5b 3e e4 6e 9a 3e cf b3 a5 3e
       -0.025950212 0.214674 0.30162728 0.32363746
000370 42 bc fe 3d 83 03 4e 3e 59 03 c8 3e b3 38 a8 3e
       0.12438251 0.20118527 0.39065054 0.32855758
000380 d3 d8 16 3e 9e 36 a3 be 5c d7 f1 be eb e1 22 3e
       0.1473115 -0.31877607 -0.4723462 0.15906493
000390 cf 48 e0 3e 37 42 04 bf 04 d9 9d be 9c 37 c2 3e
       0.4380555 -0.51663536 -0.30829632 0.37933052
0003a0 dc 87 6d 3e c1 46 70 be ed f5 93 3e dc 4b 5d 3e
       0.23196357 -0.2346449 0.28898564 0.2161097
0003b0 47 99 bf 3e 8b 67 81 3e ec 78 62 3e 3d 39 8a 3e
       0.3742163 0.2527431 0.2211644 0.26996794
0003c0 44 eb 0e be b8 d0 a7 be 56 e4 74 3e 3f 23 87 3e
       -0.13956934 -0.32776427 0.23915228 0.26394078
0003d0 c4 d6 41 3e c0 7a ca be 07 f7 4a 3e ac f9 06 3e
       0.18929583 -0.39546776 0.19820796 0.1318118
0003e0 75 03 df bd ef 26 ab be 0f f4 31 3e 0b 14 a4 3e
       -0.10889331 -0.3342814 0.17378257 0.32046542
0003f0 59 94 db be 3c a5 1d be b1 31 da be ed 29 be 3e
       -0.42886618 -0.15395063 -0.42616037 0.37141362

bias f4 [32]
000000 92 7c f3 3d b0 bc e3 3d ff 47 a7 3e 29 1e cc 3c
       0.11888994 0.11119974 0.32672116 0.024916725
000010 72 45 b2 bc 0a 6f 0e be ef 5f 32 be f5 97 e4 3d
       -0.02176163 -0.13909546 -0.17419408 0.11161796
000020 7e 9f 92 3d 5c 9a 71 3d ee de 0f be 0f cc 6f 3d
       0.07159327 0.0589851 -0.14049885 0.058544215
000030 2b b6 9e 3a 56 81 97 bc 90 86 2b 3d e5 e9 86 bd
       0.0012108734 -0.01849429 0.041876376 -0.065875806
000040 27 0b 37 be 01 9e 51 be 2a 50 10 be 83 c5 c8 bd
       -0.17875348 -0.2047043 -0.1409308 -0.09803297
000050 db bb 34 be 65 17 51 be c8 0d 88 be fa b4 e3 3c
       -0.17649786 -0.2041908 -0.26573014 0.027796257
000060 53 b7 06 be 23 42 9f bd 6a c4 2d be f0 b4 46 3e
       -0.1315587 -0.077762865 -0.16969457 0.1940496
000070 dd bc 0a 3e 22 03 bf 3e e8 d3 28 3c 06 1a be bd
       0.13548608 0.37307078 0.010304429 -0.09282307

weight f4 [64, 32, 3, 3]
000000 53 65 c2 bd e6 38 74 bb f0 d5 6d 3c 9c 56 a5 bc
       -0.09491982 -0.003726536 0.014516339 -0.0201829
000010 e8 42 12 bd 0f 0c 6f bc 70 75 c9 bc 01 14 9a 3a
       -0.035708338 -0.014590277 -0.024592131 0.0011755229
000020 b1 e6 5e bd 63 f3 ad 3c 71 fe ce bc 08 c2 f1 bc
       -0.054419223 0.02123422 -0.025267811 -0.029511467
000030 4e 86 29 bd 6b c0 8f 3c 8d 0a 1f bd 98 81 d0 bb
       -0.04138785 0.017547807 -0.03882842 -0.006363105
000040 8e 80 bb 3c 56 42 3a 3d 5e 47 2e bd 8e 62 64 bd
       0.022888448 0.04547342 -0.04254853 -0.05575805
000050 c6 22 af bd 4b f2 ab bc 8a 84 bc bc a3 24 d4 bc
       -0.085515544 -0.020989558 -0.023012418 -0.025896376
000060 24 a0 fe bb f5 9d f0 bb f1 8a f7 bb 96 a3 d0 3c
       -0.007770555 -0.0073430487 -0.007554405 0.025468629
000070 94 30 a1 bd 56 97 62 bd 3f 4a 7e 3d 26 63 3a 3d
       -0.07870594 -0.055320106 0.062082525 0.04550471
000080 05 dc 8e 3d 9d c8 b7 bb ac b0 05 3d 3d 37 7b 3c
       0.06975559 -0.0056086318 0.03263919 0.015332994
000090 48 72 f9 3d 32 be 54 3d 6a e5 88 3d 2e 18 47 3d
       0.121800005 0.051939197 0.06684382 0.048607044
0000a0 b3 3a 9b 3a 5e 76 36 3c 6b 66 89 bc a0 40 ee 3c
       0.0011843055 0.011136619 -0.01677247 0.02908355
0000b0 42 ea 37 bd 7b 54 30 bc 27 4c 81 bd fc 70 0c bd
       -0.04490114 -0.010762329 -0.06313353 -0.034287438
0000c0 14 b3 d7 bd 65 39 bd bd d5 9e f1 3b 11 70 83 bb
       -0.10532203 -0.09239463 0.0073736706 -0.004011162
0000d0 ca d8 1d bd 1d db 4e bd 35 2d 06 3d f5 38 40 3a
       -0.038536824 -0.05050193 0.032757957 0.0007332706
0000e0 0f e4 ab bc 72 dd a4 3d 17 59 02 3d c8 b4 92 3d
       -0.02098277 0.0805005 0.031823244 0.071633875
0000f0 93 46 16 bd 0e dc 3b bd 86 b1 08 bd 0a 45 38 bc
       -0.0366884 -0.045864157 -0.033372425 -0.011246929
000100 b6 e6 05 bd ac 04 a2 3d 4e f8 44 bd f9 4a ec bc
       -0.032690726 0.07911047 -0.048088364 -0.028844343
000110 6a 68 ce 3c d9 d7 6a bd e8 ed 5c 3d f8 ed ba bd
       0.025196273 -0.057334755 0.053937823 -0.0912742
000120 14 ee 78 3c 9a 3f b6 3b 31 88 88 bd 46 07 ac 3d
       0.015193481 0.005561781 -0.066666014 0.08399825
000130 ce c5 28 bd c9 9d 86 3d f4 57 91 bd d5 5a 94 bd
       -0.041204266 0.06573064 -0.07096854 -0.07243887
000140 ed 05 c5 bb 14 6d 2d bc 7f 2a 2c 3d f7 51 8d bd
       -0.0060126693 -0.010585088 0.042032715 -0.06900399
000150 8a 72 4a bb cd 72 40 bd 17 2b 3f 3c df 6e 7f bc
       -0.0030891025 -0.046984483 0.011667988 -0.015590399
000160 05 3f b3 bb 63 bb 0b bd e9 80 58 3d d6 7d 32 bc
       -0.005470159 -0.034114253 0.052857313 -0.010894259
000170 ac b5 a0 3d 58 14 bf bd 19 9b 00 bd 3a df 7e bd
       0.07847151 -0.09330052 -0.031397913 -0.062224604
000180 96 99 49 3d d7 3b 72 3d 14 5f 82 bd ba fd b7 39
       0.049218737 0.0591391 -0.06365791 0.0003509352
000190 9d 6b 4b 3d 28 b8 87 3c 7e fb f7 3b c4 70 24 3d
       0.049663175 0.016567305 0.007567822 0.040146604
0001a0 ff 12 94 3d 0a 91 ff ba 5b ce 9f bd 61 d8 9c bc
       0.07230186 -0.0019498181 -0.07803031 -0.019146146
0001b0 36 91 f5 3c 25 d0 2f 3d 2e 94 66 bc 22 d5 5f bd
       0.029976469 0.04292311 -0.014073415 -0.05464662
0001c0 e2 7d 86 bd 77 fd 92 bd 91 b1 50 3b 71 76 1e 3a
       -0.06566979 -0.07177251 0.003184412 0.0006044871
0001d0 31 7c 9f 3c 13 9e 9a 3c aa cd b4 bd 19 22 a5 bc
       0.019468399 0.018874204 -0.0882829 -0.02015786
0001e0 6f 0d 6f bc 67 8e 6f 3d 3d de 7e 3d a4 d3 33 3c
       -0.014590605 0.058485415 0.06222366 0.010975752
0001f0 6c 0e 74 3b 69 ca 40 3d 73 6e ea bd a3 91 3c bd
       0.0037240041 0.047068033 -0.11446848 -0.046037327
000200 d7 b1 ac bb 52 04 c8 bd 95 7a ee bb 17 06 41 3d
       -0.0052702236 -0.09766449 -0.0072777965 0.04712495
000210 77 7b 7b 3c fe 9f ab bd 9f c7 92 bd bf e0 81 bd
       0.0153492605 -0.083801255 -0.07166981 -0.06341695
000220 55 d7 83 bd 44 ce 59 bd df 09 66 bd c1 09 ae bd
       -0.06437556 -0.053175226 -0.056161758 -0.08497954
000230 8d 6d c0 bd 80 15 4b bd 27 56 08 bd f8 4d bd 3c
       -0.09395895 -0.04958105 -0.033285286 0.023108467
000240 ea 7a 5a 3b 89 82 ae 3c 04 6f 97 bc 05 0d ee 3c
       0.0033337423 0.021302478 -0.018485554 0.029058943
000250 b2 74 59 3c f4 d4 63 3d 5d 32 ce bb d5 5b ff 3a
       0.013272451 0.05562301 -0.006292625 0.0019482324
000260 42 c9 66 bd 89 2e 81 3d 0d d9 df 3c 65 8f b2 bd
       -0.05634428 0.06307704 0.027325178 -0.087187566
000270 ac 3b ae bd 8a 1c 02 be 79 24 9e 3c 23 70 b6 bd
       -0.08507475 -0.127062 0.0193045 -0.08908107
000280 cc 74 bb 3c b6 a1 52 3d c1 a0 6a 3d 16 fb 03 3d
       0.022882842 0.05142375 0.057282213 0.032221876
000290 6d a8 98 3c 10 be 0c 3c 26 fd 94 3c a5 73 0d 3c
       0.018635 0.008590236 0.018187117 0.008633529
0002a0 c1 99 a7 bd fa ea 0a bd 81 de e7 bd 03 9e 44 3c
       -0.08183623 -0.033915497 -0.11321736 0.012000564
0002b0 48 3c 65 3c 6f 53 a4 3d 82 37 4b 3d 8e 94 af bc
       0.013991423 0.08023726 0.049613483 -0.021433141
0002c0 d1 37 0f bc ca 59 40 bd b9 fd 90 3c d5 24 25 be
       -0.008741335 -0.04696063 0.01769911 -0.16127332
0002d0 ab aa c2 bc 73 19 91 3c d6 99 83 bd 53 19 46 3c
       -0.023763021 0.01771233 -0.06425826 0.012090999
0002e0 b6 67 1b 3d 45 79 14 3d 28 0e 15 bd 98 ec 1b 3d
       0.037940703 0.036248464 -0.036390454 0.03806743
0002f0 7b 50 bd bc 48 1f d2 bd 4a 12 76 bd 25 f2 9b bd
       -0.023109665 -0.10259873 -0.060076036 -0.07614545
000300 2a 2f 2e be 6a 3a cb bd 34 53 15 bd 15 9e 87 3d
       -0.17010179 -0.09923251 -0.0364563 0.06621949
000310 6c b9 d4 bb 1c b4 4e bd aa 14 89 bb 1a d9 34 bd
       -0.0064918306 -0.050464734 -0.0041833716 -0.044152357
000320 90 fc 8d bd 15 fc 8b bb 68 b1 11 3c 10 99 65 3d
       -0.06932938 -0.004271994 0.008892395 0.056054175
000330 75 73 27 bd 37 12 45 3d 19 12 c9 3c 87 7a 99 3d
       -0.040881593 0.048113074 0.024544762 0.07494073
000340 67 ee b7 3d 4b 96 e2 3c e2 10 65 bd 9f cb a6 bd
       0.089810185 0.027659556 -0.055924304 -0.081443064
000350 58 a3 d7 3b 05 97 cb bd e0 0c 0f 3c c9 a1 ae 3c
       0.0065807514 -0.09940914 0.008731097 0.02131738
000360 49 44 a4 3d 37 72 5c bd 77 52 e9 3c 7f 02 3b 3d
       0.08020837 -0.05381986 0.028481705 0.045656677
000370 4d 91 50 3d b4 94 b8 bc d8 44 4b bd 38 c7 ca 3c
       0.05091982 -0.022531845 -0.0496262 0.024753198
000380 a6 92 a2 bc ba 66 10 3d 39 6b c0 3b 1b d1 d8 bd
       -0.019845318 0.035254218 0.005872157 -0.10586759
000390 7c e1 e2 bc 19 f2 7a bd c7 18 12 be 9b a1 5d be
       -0.02769541 -0.06126604 -0.14267264 -0.21643679
0003a0 9b 8d b1 bd 2f 8b c2 bc 5f ac 1c bc 89 98 85 bd
       -0.08669587 -0.023748009 -0.009562581 -0.065232344
0003b0 c3 b1 e9 bc 4d c0 14 3d a8 97 95 bc 80 3b 7e 3d
       -0.028527146 0.036316205 -0.018260792 0.062068462
0003c0 31 4e c4 bc f7 99 eb bc d2 2b f0 bc fd 41 32 3d
       -0.023963066 -0.02875994 -0.02931777 0.043519963
0003d0 ed 79 5a 3d 4f 0e 67 bd da eb f3 3c e6 68 86 3d
       0.053338934 -0.05641013 0.029775549 0.065629765
0003e0 3d 6d ac 3a a1 b5 3e bd 27 6f da bc bb 6b da bc
       0.0013155114 -0.046559934 -0.02666433 -0.026662698
0003f0 fc 9a 7a 3d 2b a5 8b 3d ce 65 8f 3d d4 60 3b 3d
       0.06118296 0.06818613 0.070018396 0.04574664

bias f4 [64]
000000 99 1d 82 bd 7d 1b 0f bd 33 9f aa 3b 23 d0 58 bd
       -0.063533016 -0.034938324 0.0052069663 -0.05293287
000010 1e 29 c3 bc ab d0 75 3d 8e 17 ab 3c 7b 58 59 3c
       -0.023823317 0.060013454 0.020885255 0.013265724
000020 f1 d8 56 bd 53 92 e3 3c 70 ab 8b bc cb 1d 6e bb
       -0.052452985 0.027779734 -0.017049521 -0.0036333676
000030 98 ea 98 3c 72 59 71 3d 49 60 03 bd 79 be 17 bd
       0.01866655 0.058923192 -0.032074247 -0.037046883
000040 bc b0 0c bc ba f2 3b bd 87 b6 f9 bc e4 17 08 3b
       -0.008587059 -0.04588578 -0.030482544 0.0020766193
000050 86 27 22 3c a3 69 04 3d be 07 3e 3b 01 27 2f bd
       0.009897118 0.032327306 0.0028996314 -0.042761806
000060 86 e2 b9 b9 42 51 41 bd 5b f1 44 3b 36 d6 3b bc
       -0.00035454723 -0.047196634 0.0030051086 -0.011464646
000070 18 ae a5 3c b9 30 ba bc e5 59 e6 3b fe 81 12 3c
       0.020224616 -0.02272831 0.007029759 0.008942125
000080 60 19 89 bd 4c 5c a8 bd 56 77 5d bd 42 b9 f4 3c
       -0.06694293 -0.08220729 -0.054068886 0.029873494
000090 20 05 4e bd 1d 75 4f bd 82 a1 d4 3c 89 b5 1d 3c
       -0.050297856 -0.050648797 0.02595592 0.009625801
0000a0 b5 60 41 3d 29 5a 9b bd d7 0b 0c bb d1 0b 9b bc
       0.047211368 -0.07585556 -0.0021369362 -0.018926533
0000b0 6a fb 7c 3c 9b 97 05 3d f3 bc 01 bd 78 ba 8c bd
       0.015440801 0.032615285 -0.031674337 -0.068715036
0000c0 6e 09 a2 bc 4e ad b2 bc b3 91 16 bd d8 31 46 3d
       -0.019779887 -0.021811154 -0.036760043 0.04838738
0000d0 f9 b3 78 bc 96 d6 ce bc 88 4c 0e bd 26 b6 90 3b
       -0.015179628 -0.025248807 -0.034740955 0.004416245
0000e0 93 4a 72 3c fe fc 10 3d eb 6f 78 bd 32 12 0b 3b
       0.014788288 0.035397522 -0.06065361 0.0021220562
0000f0 e1 ed 62 bd f2 e1 4a 3d 77 c5 77 bd 93 30 0a bd
       -0.05540264 0.049531884 -0.06049105 -0.03373773

weight f4 [10, 1600]
000000 52 d0 df bb a2 8f a5 3b cd 1d 19 ba 4c de 0d 3d
       -0.0068302536 0.0050525228 -0.00058409275 0.034635827
000010 d9 52 dd 3c 69 b0 e3 3c 0f 51 21 3d 43 37 48 3c
       0.027017044 0.02779408 0.039383944 0.012220207
000020 2d c3 e4 3b 15 26 67 3c 7c af 37 3c 1e ac 04 bb
       0.0069812746 0.014108201 0.011211272 -0.0020244191
000030 c9 10 89 bd e1 7d b3 bc 39 cf df 3a 38 21 d6 3c
       -0.06692655 -0.02191061 0.0017075307 0.026138887
000040 17 57 2b 3b 89 10 22 bd 7b 8a e6 bb 43 8d 86 bc
       0.002614444 -0.03956655 -0.007035551 -0.01642478
000050 d1 b9 90 bb b5 5b 0d bc b3 b8 73 3b fa 57 01 3c
       -0.0044166823 -0.008627822 0.0037188947 0.00789451
000060 f1 26 eb ba 46 6a 82 bb 88 1c 4f 3c 26 cd 03 3c
       -0.0017940683 -0.003979954 0.01264108 0.008044517
000070 d3 77 19 bc a3 40 1f 3c 29 a1 b7 bb 62 f8 1f 3d
       -0.009366947 0.00972 -0.0056039286 0.039055236
000080 61 77 20 bd 9a 0c f3 3c 93 45 4d 3c 42 d4 0d be
       -0.03917635 0.029669095 0.012528795 -0.13850501
000090 c6 1c 2e bd 25 2b 06 3d 98 32 3b bd 58 1e 8c bd
       -0.04250791 0.03275599 -0.045702547 -0.06841725
0000a0 48 d2 8b bd 80 40 42 3b 25 63 9b 3c 1e 2d d8 bc
       -0.06827217 0.0029640496 0.018968174 -0.026388701
0000b0 e8 b6 4d bd 48 b3 95 bd e2 1a 32 3c d9 68 6a 3d
       -0.05022326 -0.07309586 0.010870667 0.057228897
0000c0 20 00 02 3d b6 f5 90 3c 4d 0e c3 bc 1c 99 4e 3c
       0.0317384 0.01769529 -0.02381053 0.012609746
0000d0 61 54 5a 3c 85 eb 53 3c 74 1b ad 3c 71 c3 b9 bc
       0.013325782 0.01293457 0.021131255 -0.022676202
0000e0 2c b8 41 bc 4c 2c b3 bc cb c7 b6 3c 50 f2 02 3d
       -0.011823695 -0.021871708 0.022312066 0.03196937
0000f0 06 7b 89 bb 80 73 a4 3c cc 0f 65 3b 9f 91 0e bd
       -0.0041955737 0.020074606 0.0034952043 -0.034806844
000100 37 bc 10 bc 0b b2 ad 3c 9b a7 4e 3c 16 68 22 3d
       -0.008833936 0.021203062 0.012613202 0.039650045
000110 2b 17 af bc ce 23 41 bd b0 77 89 3c b5 cf 43 3d
       -0.021373352 -0.047153287 0.016780704 0.047805507
000120 b1 73 9f 3d b1 19 29 bc 66 a9 79 bd 09 1d a0 bd
       0.07785738 -0.010321067 -0.060952567 -0.07818038
000130 08 70 29 bd 06 52 aa bc 67 a9 87 3c a4 4a 12 3d
       -0.041366607 -0.020791065 0.01656027 0.035715714
000140 7b 0f 97 bd cf 5a aa bc d9 b5 60 bc cc 11 9a 3c
       -0.073759995 -0.020795254 -0.013715231 0.018807314
000150 31 66 b8 3b ba f4 4f bc 04 c5 17 3d c3 08 23 3d
       0.0056274165 -0.012692625 0.037053123 0.039803278
000160 26 63 28 3c 1f df 08 bc b2 81 5b 3c e1 87 d3 3c
       0.010277545 -0.008353977 0.013397621 0.025821628
000170 5e ec c7 3c d2 ee 45 bd 52 42 57 bd 6d ad 5c 3d
       0.0244047 -0.04832346 -0.052553482 0.05387633
000180 15 4a 66 3d e6 a3 97 3d cd 99 4b bd 29 8b a6 bd
       0.056222994 0.07404308 -0.049707223 -0.081320114
000190 70 23 1f bb 22 47 23 bc 0f 4f 89 bc f5 dc e9 bc
       -0.0024282597 -0.00996569 -0.01676133 -0.028547743
0001a0 de 5d ab bc b2 68 6e bc 54 a1 de bc a6 ba 2f bd
       -0.020918783 -0.0145513285 -0.027176537 -0.04290261
0001b0 37 2c c1 ba aa 76 c4 bb 79 5a 6d bd 27 a0 0e be
       -0.0014737908 -0.005995591 -0.05794761 -0.13928281
0001c0 11 ad ab bc a6 12 81 3c db fd 27 3d 04 6e b7 bd
       -0.020956548 0.015755963 0.04101358 -0.08956531
0001d0 4f b9 1d be 06 40 c4 bd e8 46 20 3b 8a 9e 72 3d
       -0.15402721 -0.09582524 0.0024456326 0.059233226
0001e0 f6 c0 52 bc d0 21 a4 bc e1 bd 64 3c 79 b4 05 3c
       -0.012863388 -0.020035654 0.013961286 0.008160704
0001f0 27 a0 81 3c 1e 03 f6 bc 75 b4 0a bd 96 02 9f 3a
       0.015823437 -0.030030783 -0.033863503 0.0012131508
000200 25 1e ec bc 5b a5 06 3d 03 7f a3 bb cd 6b 82 bc
       -0.028822968 0.03287254 -0.004989506 -0.015920544
000210 13 58 72 bd d4 98 e6 3c f9 95 ce 3c 10 e2 f1 3b
       -0.059166025 0.028149046 0.025217997 0.007381685
000220 7d 0c d6 bb 6e a6 93 bd 5a 8c 86 3d 6d 15 63 3d
       -0.0065322504 -0.07209478 0.06569739 0.055440355
000230 c8 e0 b1 3c ae 77 01 bb d8 2d b9 bc e0 68 bb 3c
       0.02171363 -0.0019755173 -0.022604868 0.022877157
000240 81 bf 77 3d 4f ed af 3c 69 8e 10 3d 67 60 74 3c
       0.060485367 0.021475462 0.035292063 0.014915562
000250 3c 12 a5 bd f6 31 a8 bd 1d 76 68 bc da 46 ec bc
       -0.080601186 -0.08212654 -0.014188317 -0.028842378
000260 10 48 39 bc f2 3a 9d bc 09 6e 38 bd 9d 21 47 bc
       -0.011308685 -0.019193146 -0.045026813 -0.01215401
000270 9b ad 8b 3b 97 9a c7 bc 51 71 84 b8 b0 0d ba ba
       0.0042626387 -0.024365706 -6.315357e-05 -0.0014194753
000280 67 79 31 3c 7b 6f 64 3c b2 78 87 bd 71 a9 e6 3c
       0.010832167 0.013942595 -0.06614818 0.028156968
000290 a0 5b ae 3d b4 6c 06 3d 91 0f 9d 3b 5b 51 8b bc
       0.0851357 0.03281851 0.0047931154 -0.017006567
0002a0 32 3d 1d 3d 0f 5f fe 3c 3d 50 b2 3c 8a cf 2f 3d
       0.03838844 0.031051187 0.021766776 0.042922534
0002b0 9f f6 9c bd c5 cc ce bd 22 22 be bc b5 96 88 bc
       -0.07664227 -0.100976504 -0.023209635 -0.016673425
0002c0 14 09 50 bc 45 ef 36 bc 3c e8 9c 3b a6 5a 9a bc
       -0.012697477 -0.011165445 0.0047884267 -0.018842053
0002d0 0f b5 84 ba 0d 59 6b 3c 53 f7 b7 3c af 25 57 3c
       -0.001012476 0.014364493 0.0224568 0.013131543
0002e0 55 71 cc bb e0 83 8d 3c b7 b0 34 3b da 9d ba bb
       -0.006239096 0.017274797 0.002757115 -0.005695087
0002f0 3a 95 b0 bc 75 54 79 3c 17 fb 13 3d d8 7e a3 3c
       -0.021555532 0.01521789 0.03612813 0.019957945
000300 7f 70 9e bb 29 20 47 3c e3 b0 d3 3c 30 34 ad 3c
       -0.004835188 0.012153664 0.025841182 0.021143049
000310 ca e1 ed 3c 8e 55 16 bc 91 59 ad 3b 0e 9a ab bb
       0.029038329 -0.009175671 0.005290218 -0.0052368706
000320 61 d9 db bc 04 de 39 bd da 79 5e bc 79 71 ad 39
       -0.026837053 -0.045377746 -0.013578856 0.00033081675
000330 4e 80 03 bc e3 64 e5 3b a5 71 e4 bc ef 36 dc 3b
       -0.008026196 0.007000552 -0.027886221 0.006720416
000340 40 46 a2 3c d7 0e 8e 3c f1 6d 40 3d 6b dc 0e 3d
       0.019808888 0.01734106 0.04697985 0.034878176
000350 2d 17 88 3d f4 f4 c5 3c 4b 7c e0 3c 64 40 dc 3c
       0.066450454 0.024164654 0.027403018 0.026886173
000360 43 5c 9e 3c 30 62 3d 3d f7 6f 7d 3d 92 5d ab 3b
       0.019331103 0.046236217 0.061874356 0.0052296603
000370 fc 48 14 3c cb 48 db bc 57 de e4 3d ca 47 8d 3c
       0.009050604 -0.026768109 0.111752205 0.017246146
000380 04 62 96 bd a7 55 de bc 55 61 b7 bb 90 b4 ec 3c
       -0.07342914 -0.027140452 -0.0055963197 0.028894693
000390 48 d1 bb 3c c4 64 b4 3c 06 f9 78 bc 01 f1 57 bc
       0.022926942 0.022020705 -0.015196091 -0.013180018
0003a0 e2 37 3c 3d 3c f5 fe 3c b7 57 f1 3c 95 3c b8 bd
       0.04595173 0.031122796 0.029460771 -0.0899593
0003b0 ca 63 9f ba 6d dd f3 bc eb b7 cd 3b 58 50 a1 3c
       -0.0012160477 -0.02976867 0.0062780282 0.019691631
0003c0 02 12 99 bd 4f 42 33 3c 49 8d bd bb 68 88 b7 bc
       -0.07474138 0.010941102 -0.005784665 -0.02240391
0003d0 e7 4e 6f bd 5f 96 80 3c 6c 1a 22 3b 1c 7e 84 3d
       -0.058424857 0.015696703 0.0024734987 0.06469366
0003e0 75 f8 6f bc 68 24 c0 bd f5 5e d8 bc 74 b4 34 bd
       -0.014646639 -0.09381944 -0.026412467 -0.044117406
0003f0 c4 49 1c bd 27 a4 71 bd c0 44 0c bd 48 fa c5 bd
       -0.038156286 -0.05899444 -0.034245253 -0.09666878

bias f4 [10]
000000 27 aa de bb 8c f5 9d 3d 33 20 88 3b b1 ab 04 bc
       -0.006795186 0.0771285 0.004154229 -0.008097575
000010 9f f5 21 bc 9e 67 17 3c bc a2 a5 bb a1 31 00 3d
       -0.009885221 0.009241013 -0.0050548 0.03129733
000020 b2 9b 19 bd e4 7c de ba
       -0.037502 -0.0016974476
